tick/inference/tests/hawkes_conditional_law_test-kernels.npy (npy, 400 bytes, 1 tensors)

array f8 [2, 2, 2, 5]
1.8764030812267207 9.230613797886338 20.0 30.769386202113658 38.12359691877327 0.17619142368857332 -0.044926635321373906 -0.051405475686203864
-0.026026280844880796 -0.08064022256514831 1.8764030812267207 9.230613797886338 20.0 30.769386202113658 38.12359691877327 -0.06635555231412543
-0.05994435740003164 -0.05097037276070542 -0.0026086938688863865 0.07665440078966676 1.8764030812267207 9.230613797886338 20.0 30.769386202113658
38.12359691877327 -0.1809186143313644 0.03967843691314018 0.03807646273995715 -0.0029721791404596393 -0.23012200018526566 1.8764030812267207 9.230613797886338
20.0 30.769386202113658 38.12359691877327 -0.17531870101568925 -0.0085846479142319 -0.04064068184863769 -0.09099025153308654 0.11034264135016358
00000000: e6b7 bf3c bf05 fe3f 3adb ff02 1376 2240
00000010: 0000 0000 0000 3440 6212 807e f6c4 3e40
00000020: 4002 1a06 d20f 4340 40ff 49c9 708d c63f
00000030: b667 d9ba 9f00 a7bf daac d089 d151 aabf
00000040: 42d7 4224 a2a6 9abf 3dd3 a86e d6a4 b4bf
00000050: e6b7 bf3c bf05 fe3f 3adb ff02 1376 2240
00000060: 0000 0000 0000 3440 6212 807e f6c4 3e40
00000070: 4002 1a06 d20f 4340 2ce1 186f adfc b0bf
00000080: 4bca 39dd 06b1 aebf 07f2 24e8 c918 aabf
00000090: dbc0 44db d35e 65bf be70 7c70 9f9f b33f
000000a0: e6b7 bf3c bf05 fe3f 3adb ff02 1376 2240
000000b0: 0000 0000 0000 3440 6212 807e f6c4 3e40
000000c0: 4002 1a06 d20f 4340 7a3a e555 5728 c7bf
000000d0: bbf2 cb69 bb50 a43f 3353 6e14 c27e a33f
000000e0: c998 9886 1c59 68bf 9d62 7140 a374 cdbf
000000f0: e6b7 bf3c bf05 fe3f 3adb ff02 1376 2240
00000100: 0000 0000 0000 3440 6212 807e f6c4 3e40
00000110: 4002 1a06 d20f 4340 ccaa 9edb d770 c6bf
00000120: d87c 50f0 d394 81bf f3a4 dafe dace a4bf
00000130: 44e4 961a 234b b7bf 9005 f453 6a3f bc3f
